data.pth (torch, 4991 bytes, 6 tensors)

l1.weight f4 [8, 54]
00000000: 753c bc3e d5d0 20bb fe9a d03d d900 c23e
00000010: 2fe4 323e 2a74 6b3e 276e fbbd 7501 4c3e
00000020: 099d 02bf 5790 8e3e 8efc 023f 65ff 70be
00000030: 7d8b e2be 6b46 debe 3201 9dbd 9efc 02bd
00000040: 95e9 f73e a325 913e 6ea7 10be c1c3 3f3f
00000050: b3f1 d83e 6917 2c3f 53df 343f 3b87 973e
00000060: 3b7a a6bd bfe4 b13e e459 a0be e415 63be
00000070: 07d9 87be 85e2 5abe 97c8 0fbc 1bd7 b2be
00000080: 5351 7d3e 835a 953e 1ff0 86be 74e8 f0bd
00000090: 5f42 b3be 0558 16bf 9639 7fbe 2c9d 15be
000000a0: cd17 183d c25c 87be 9fe1 70be 0403 fbbd
000000b0: 92f5 55be ba77 92be 9ae5 593f d36a f13e
000000c0: 8bf4 673e 0602 cfbe 579b d7bd 00a9 73be
000000d0: 18bf 5cbe d8c5 4f3e d644 adbe de13 ad3e
000000e0: a407 afbe 4089 c83e f9cc b43e 243c 133f
000000f0: 20d0 8abe 96ba e7be c3ab d1be 24ff c9be
00000100: 9a95 e23e d288 033f 7624 893e d02e 313f
00000110: af84 833e 2dfc 073f 038f f43e c600 1e3f
00000120: 43f7 133f c33b 3b3f e532 ccbe bf62 393f
00000130: ee16 253f eebd 333f 190f a43e 14bb 5f3e
00000140: ba60 fe3e 9a30 ef3e cc02 653e 79b7 9f3e
00000150: 8190 d33e f3aa 293f cc31 64be d692 9ebe
00000160: b05d de3e 15e4 fc3e 5df3 b23e 37cb 85be
00000170: 79e5 29be 0f51 31be 9105 ab3e 32e6 f03e
00000180: 65a6 d53e ad6e 4e3e d7d7 d83e 0d08 a13e
00000190: dd27 93bf 262b d3be 3f03 8e3e 2d7e 413f
000001a0: 6dd2 f33e 2021 133f 3ee9 c1be dfcd 083e
000001b0: fc76 093f 4d19 bc3e 91aa cc3e a896 d2be
000001c0: fc16 3b3e 54c4 dbbd 4063 0f3f 33d2 c53e
000001d0: 3590 fe3e 4e97 b83e a248 ecbe 6877 28be
000001e0: d5a3 4a3f 8ff0 ab3e c308 e73e 9b10 67be
000001f0: 6a79 ccbe e067 01be f71b e93e 4662 5cbf
00000200: 444b d63e 5640 5cbf 0e76 5cbf af92 3abf
00000210: 024f 5c3c 4703 b6be 6938 0b3f b802 e53e
00000220: a1a9 f83e 3d71 9f3d 3546 99be 0722 933e
00000230: b516 7a3e 1ee5 013f 245c 0b3f 8a11 49be
00000240: 6d5a 0c3f 3e48 1f3f e865 ce3e 6cbf 0c3f
00000250: b86a 4bbe 2e8e dd3e e8b2 45bd db20 c93e
00000260: 8e2c d13e 4083 db3e aabf 893f 629e d63e
00000270: cbeb a13d 8be6 1f3f 3950 b6be 0a29 a13e
00000280: 4a4f 9c3e 5d8e 1e3f e5b7 0b3f fa2b 8ebc
00000290: 1cc3 ca3e fab0 bc3e f79c 033f ead2 25bf
000002a0: 5e89 d33e cac0 6c3e c4fc 073f 3928 ca3e
000002b0: c274 ea3e 7a2f 9fbe 7c70 993d f9d3 e0be
000002c0: 1f12 a7bc f11c 57be d42f d13e 4ccf 25bf
000002d0: a5a2 94be d4a0 443f 6a65 0f3f cace 563f
000002e0: fe95 413f 54ad ce3e 5eb9 b83e 7201 8e3e
000002f0: 7b30 c8be 3055 16be 268d 71be 5c25 ebbe
00000300: 174f e7be f9dd fabe 425a 883e ad84 ea3e
00000310: 0a10 03bd e3f9 92be 624b 41be 2e8f 0e3f
00000320: 3cc3 c23e 0506 093f 0eec 03bf f125 e8be
00000330: b960 9fbe 0258 12be ce3e 413e 6fb7 28be
00000340: 05d6 753f 6fa2 013f 07ad 953e cc89 23bf
00000350: 8561 8bbd 1a54 d2be 33cd a43e a41c bd3e
00000360: 3573 063f e219 2abd aa7f e6be f355 b13e
00000370: 58b0 bb3d aa2e 133f bf2b 2ebe 7fb9 cabd
00000380: 1d5c 30bf dade 75be 6e78 e43e ce4e 57be
00000390: 0e1b 1abf 505e a0be 7947 20be e8c6 61bc
000003a0: 4c6a aa3e cb18 103f 5b38 6bbe 1528 033f
000003b0: d43c fd3e 8c49 063f ff47 d13e 0ee2 dc3e
000003c0: 9ae2 87be eab5 623e 7e18 adbe cc6a 3fbe
000003d0: e513 8ebe d2ea cbbc f8a1 973e 2977 07bf
000003e0: c180 d33e f0a0 86be aef7 7bbe c872 04be
000003f0: 3eb4 94be ecfe f4be f03d 5abe 0ae0 62be
0.36764875 -0.0024538536 0.101858124 0.37891272 0.17469858 0.22993532 -0.12276869 0.19922431
-0.51020867 0.27844498 0.5116662 -0.23534925 -0.44247046 -0.434131 -0.076662436 -0.031979196
0.48420396 0.28349027 -0.1412637 0.7490807 0.42371902 0.6722322 0.70653266 0.2959536
-0.08128782 0.34744832 -0.3131858 -0.2217632 -0.26532766 -0.21375473 -0.008775852 -0.34929737
0.24738054 0.29170617 -0.26355073 -0.11763087 -0.35011575 -0.5872806 -0.24924311 -0.14610738
0.037132073 -0.26437956 -0.23523568 -0.122564346 -0.20894459 -0.2860697 0.8511597 0.47151813
0.2265188 -0.4043123 -0.105276756 -0.23794937 -0.21557271 0.20290315 -0.3384158 0.3380422
-0.34185517 0.39167213 0.35312632 0.5751364 -0.27111912 -0.4525954 -0.40951356 -0.3945247
0.44254762 0.51380646 0.2678563 0.69212055 0.25687167 0.53119165 0.4776536 0.6171993
0.57799166 0.73138064 -0.3988258 0.724163 0.6448811 0.70211685 0.3204277 0.21848708
0.49683172 0.46716768 0.22364348 0.31194666 0.41321185 0.6627647 -0.22284621 -0.30971402
0.43430853 0.49392763 0.34951296 -0.26131603 -0.16591443 -0.17316078 0.33402684 0.47050625
0.4172851 0.20159407 0.42352173 0.31451455 -1.149654 -0.41243857 0.27736852 0.75583154
0.4762148 0.5747242 -0.37873262 0.13359784 0.5369718 0.36738053 0.39973882 -0.41130567
0.18270487 -0.10730806 0.5601082 0.38636932 0.49719396 0.36052936 -0.46149164 -0.164518
0.7915624 0.3358197 0.45123872 -0.22564928 -0.39936382 -0.12637281 0.45529148 -0.86087453
0.41854298 -0.8603567 -0.8611764 -0.7288007 0.013446571 -0.35549375 0.5438295 0.44728637
0.48566917 0.0778527 -0.29936376 0.28736898 0.24422725 0.5074023 0.5443747 -0.19635597
0.5482548 0.6221961 0.40312123 0.54979587 -0.19864929 0.43272537 -0.04826632 0.3928288
0.40854305 0.42873573 1.0761616 0.41917711 0.07906302 0.62461156 -0.3560808 0.31476623
0.30529243 0.6193598 0.54577476 -0.017354954 0.39601982 0.36853772 0.51411384 -0.64774954
0.4131574 0.23120418 0.53120065 0.39483812 0.45792204 -0.3109091 0.07492158 -0.43911722
-0.020394383 -0.21007134 0.40856802 -0.64769435 -0.29030338 0.76807904 0.5601412 0.83909285
0.75619495 0.40366614 0.36078924 0.27735478 -0.39099488 -0.14680934 -0.23589 -0.4592694
-0.45177528 -0.48997477 0.2663136 0.4580435 -0.031997718 -0.28706273 -0.18876413 0.55687225
0.38039577 0.5352481 -0.51532066 -0.45341447 -0.3112848 -0.14291385 0.18871614 -0.16476224
0.9602969 0.5063848 0.29233572 -0.63882136 -0.0680571 -0.4107979 0.32187805 0.36935914
0.5251954 -0.04152859 -0.45019275 0.34635887 0.09164494 0.5749308 -0.17008875 -0.09898662
-0.68890554 -0.24010792 0.4462313 -0.21026155 -0.6019753 -0.31321955 -0.15652265 -0.013780333
0.33284223 0.5628783 -0.22970717 0.51233035 0.4946047 0.52455974 0.4087524 0.43141216
-0.2654007 0.22139707 -0.3380775 -0.18693084 -0.27749553 -0.024892244 0.2961576 -0.529162
0.4130917 -0.2629466 -0.24606201 -0.1293441 -0.29043764 -0.4785074 -0.2131269 -0.22155777

l1.bias f4 [8]
00000000: 0e80 6e3f 7e29 933f f074 5c3f 3fd2 253f
00000010: 54c6 7e3f ef1e 133f 815e 3c3f adb4 e03e
0.93164146 1.1497037 0.8611593 0.64773935 0.99521375 0.57469076 0.735817 0.43887845

l2.weight f4 [8, 8]
00000000: 3cf0 673f f9ce 80bf 7087 a93f 69b5 9d3f
00000010: 4397 343f 7765 723f ddf0 4bbe 88dc 9a3f
00000020: ff52 933f d790 1e3d 0437 3c3f 7723 ee3e
00000030: ddda 493f e12a 46bf 5f53 7a3e 6497 5ebf
00000040: a8f2 413f 826c a93f e2a2 81bf f37a c63e
00000050: a3c3 4a3f e415 913f 7a7d bc3f 067a 6abf
00000060: c9ca 7ebf 0be9 8a3f 7f8d 633f f4cb debe
00000070: dd57 8fbf 368c 3a3f a38d ee3e 00e8 573f
00000080: c631 93be 9437 90be bcfa 4abe 1a79 6a3e
00000090: 607a 073e f44e c5bd d129 44be 304b 82bc
000000a0: e243 933e d85d ac3f 2b86 1c3f 1edb 4dbf
000000b0: f4c7 413f 31a9 b6bf 1494 a3bf 8082 dabe
000000c0: 64c1 5fbf 966f 6e3e 4c5e 743f 9033 25bf
000000d0: c26d 0abf c3c7 453e 52b9 4ebf 9e07 263f
000000e0: 4de6 ccbd 4b99 8a3e e17e 713f ff4f 7d3f
000000f0: dc6f 81bf 5162 5dbf 7a23 993f 42a7 40bf
0.90600944 -1.0063163 1.3244457 1.2320987 0.7054331 0.94686073 -0.19916101 1.2098551
1.1509703 0.03871235 0.7352145 0.46511433 0.78849584 -0.7740918 0.24445866 -0.86949754
0.7576089 1.3236239 -1.0127833 0.38765678 0.7920477 1.1334805 1.4725792 -0.91592443
-0.99528176 1.0852369 0.8888778 -0.4351498 -1.1198689 0.72870195 0.46592435 0.8433838
-0.28748912 -0.28167403 -0.1982221 0.22897759 0.13230276 -0.096342 -0.19156577 -0.015904993
0.28762728 1.3466139 0.61142224 -0.8041247 0.7569573 -1.4270383 -1.2779565 -0.4267769
-0.87404466 0.23284754 0.95456386 -0.64531803 -0.5407373 0.19314484 -0.80751526 0.6485537
-0.10004864 0.27070078 0.94334227 0.9895019 -1.0112262 -0.86478144 1.1963952 -0.75255215

l2.bias f4 [8]
00000000: 0861 3c3e 7844 403f 9bea ca3e 81e7 3c3e
00000010: 2a8b 1abe 7a6e 7f3f 639b a33e 01af 063f
0.1839639 0.75104475 0.39632115 0.18447687 -0.1509215 0.9977795 0.31954488 0.52610785

l3.weight f4 [7, 8]
00000000: 3a5d 9ebf 1f64 81bf 9667 153f fd41 2e3f
00000010: 91fa 8f3e e984 7ebf 91b8 87bf db7a 85be
00000020: 6c52 ff3d 1a6c 68bf 15a4 d2be 250e 373f
00000030: 2e15 9ebe 1aab 96bf 5477 3e3f 5abf 57bf
00000040: 9774 13bf 7b3f 093f 4a85 08be 5409 a6bf
00000050: bbf3 1abe 0d2b 8b3f 294f 2dbf ff4f 9dbf
00000060: ce06 9dbe 56de 1f3e 750c 943f 3811 b8bf
00000070: 8887 4fbd e99b f4bf 60d4 39bf fcd9 1cbf
00000080: 1183 06bf 5044 92be a59a b3bf a642 4b3e
00000090: b74d 2fbe 793f f73e 14b7 373f 698a 943e
000000a0: 6720 c2bd 1553 d23e bde7 48bf 39bc b8bd
000000b0: d4f4 08be a467 b2bf 50c8 00bf e2f2 763f
000000c0: 5ba7 7e3f 4fc3 4a3e 631d 11bf cc98 74bf
000000d0: 8775 a93e 4d28 c7bf ebbc 2ebf 1fa3 9fbf
-1.23722 -1.010868 0.58361185 0.6806944 0.28120854 -0.99421555 -1.06032 -0.26070294
0.124668926 -0.9078995 -0.4114081 0.7150596 -0.30875534 -1.1770966 0.7440083 -0.84276354
-0.57599777 0.5361249 -0.13332096 -1.2971597 -0.15132038 1.0872513 -0.67698914 -1.2290038
-0.30669254 0.15612158 1.1566302 -1.4380255 -0.050666362 -1.911008 -0.72589684 -0.6127012
-0.5254374 -0.28567743 -1.4031569 0.19849643 -0.1711949 0.48290613 0.7176373 0.2901185
-0.094788365 0.41079012 -0.78478605 -0.090202756 -0.13374645 -1.3937879 -0.5030565 0.9646436
0.99474114 0.19801067 -0.56685466 -0.9554565 0.3309748 -1.5559174 -0.68257016 -1.2471656

l3.bias f4 [7]
00000000: 74ff 12be 3514 bfbe 10f2 083f 1d7a 2b3e
00000010: f77b d1bd 26e8 58be aca2 c53d
-0.1435526 -0.37320104 0.5349436 0.16745801 -0.102287225 -0.21182308 0.09650168
